cache/profile/wpp/Default/optimization_guide_prediction_model_downloads/fe48e48c-4571-49b7-a1e1-15d33a1da498/model.tflite (tflite, 409956 bytes, 166 tensors)

context_transformer_0/bottleneck_input/norm/add f4 [32]
000000 ec a1 bb bc 2e 22 46 3e 3a 57 68 3d 78 5c b0 bd
       -0.022904359 0.19348976 0.05672381 -0.08611387
000010 a4 e3 32 3d 96 18 71 3d df 41 90 3c 46 ab 09 bc
       0.043674126 0.058861338 0.017609535 -0.008402651
000020 4c e0 ab 3c e4 1e ea bc 1c 83 e7 bd 23 a8 00 3e
       0.020980977 -0.028579183 -0.11304304 0.12564139
000030 08 b1 fe 3a bf d2 59 3d c6 df f8 bc b1 4f aa bc
       0.0019431422 0.0531795 -0.030380141 -0.020789953
000040 5a 66 8a 3c e2 a0 4a 3d b4 1f 13 3e 9a 88 34 bd
       0.016894508 0.049469836 0.14367563 -0.044075586
000050 e6 a5 55 bd fd 7f 24 be 27 3e eb bb 30 46 36 bd
       -0.052160166 -0.16064449 -0.00717904 -0.04450053
000060 f1 b6 c5 3c ac 1c 85 3d b4 31 ba bd 0c ed 1e 3e
       0.024135085 0.06499609 -0.09091511 0.15520114
000070 cc be c9 bd b7 f7 e8 3c e8 16 85 be 9c 0e 16 39
       -0.09850845 0.028438432 -0.2599404 0.00014310557

context_transformer_1/bottleneck_input/norm/add f4 [32]
000000 8f 12 d2 3d ac 1b 2c 3e 2a 00 58 be 27 14 15 bd
       0.10257446 0.16807431 -0.21093813 -0.036396172
000010 c5 9b 43 3c 7d cb d0 bd 7d d1 e9 bd 58 fd 41 bb
       0.011938994 -0.10195062 -0.1141691 -0.0029600468
000020 64 08 f7 be ab f8 14 bd 66 24 4d 3e 72 45 f1 bd
       -0.4824859 -0.03636996 0.20033416 -0.11780824
000030 1a ca 67 3c 58 8c 90 3d 6f 4d 1e 3e 6f 2f d5 bd
       0.014147306 0.070580184 0.15459226 -0.10409438
000040 e8 de 0d bd c3 03 bd bd d2 d1 1a 3d 05 9f 50 3e
       -0.034636408 -0.09229233 0.037797756 0.20373161
000050 7f 0c cb 3c 7e 3f 0a 3e dd 6c e5 3d a4 b1 70 be
       0.024786232 0.13500783 0.11202405 -0.23505265
000060 c4 c3 4c 3d df 4c 02 bd 6e 13 c3 bd 7a 7d 1d bc
       0.049991384 -0.03181159 -0.0952519 -0.0096124355
000070 35 a0 1f be d7 12 d4 bc 78 84 dd 3c 80 45 0f 3d
       -0.15588458 -0.02588789 0.027040705 0.03497839

mention_transformer_0/bottleneck_input/norm/add f4 [32]
000000 2c 1c 42 3e 10 b2 1c bd bc ad 52 3e 22 de 11 bd
       0.18956059 -0.03825575 0.20574087 -0.035612233
000010 2c 60 15 be f2 89 48 be e7 bc 96 bd 4c b4 d8 bb
       -0.14587468 -0.19583872 -0.07360249 -0.00661329
000020 00 c5 84 be ba 64 8d bb 12 03 ac 3d 36 06 3a be
       -0.2593155 -0.004314986 0.08399023 -0.18166432
000030 38 0f 1b 3e ec 86 43 bb 31 62 5d 3d 5f 26 56 bc
       0.15142524 -0.0029835058 0.05404872 -0.013070672
000040 62 d0 3c 3e 67 94 52 3d 5f 77 29 bb d2 24 6a 3c
       0.18438867 0.05141106 -0.0025858504 0.014291005
000050 a7 67 0c 3e df e9 39 be c0 9d 02 3e 19 a3 e5 3d
       0.13711415 -0.18155621 0.1275549 0.11212749
000060 9e 38 43 3e 8c 60 e2 3d 1c 21 04 3c 18 84 1c bd
       0.19064566 0.11053571 0.0080645345 -0.038211912
000070 4a c0 85 3d 70 5e 1d 3d ef 6e c1 bd 62 be e0 bd
       0.06530817 0.03842014 -0.09444987 -0.10973813

mention_transformer_1/bottleneck_input/norm/add f4 [32]
000000 52 5b 00 be 01 90 99 bd c5 08 cc 3d 5d c0 a4 be
       -0.12534836 -0.0749817 0.0996261 -0.32178012
000010 48 fe 60 bd ec 0a 9a 3d ec 8f 49 be 4e a8 06 be
       -0.05493 0.075216144 -0.19683808 -0.1315014
000020 6c e5 c0 be de ae 66 be de 73 2d 3e aa 86 0f be
       -0.37675035 -0.22527644 0.16938731 -0.14016214
000030 9a 50 8a bd 0d 6f 8c bd f4 f1 3d 3e 5c 9a 15 bd
       -0.06753655 -0.06857119 0.18549329 -0.03652416
000040 08 0c 2d bd c3 10 9f bd 32 99 cf 3d e3 f9 11 be
       -0.042247802 -0.07766869 0.101366416 -0.1425548
000050 0b f4 37 3e f2 f8 ba 3c a3 b5 5e 3c a8 5e a0 bd
       0.17964189 0.022823785 0.01359311 -0.07830554
000060 55 dc c2 bc e0 bc 6c 3d 9f 1f 02 bf 09 9b 39 3d
       -0.023786703 0.057797313 -0.508295 0.04531387
000070 33 95 74 3d 80 8f 46 be 48 7a eb 3d a8 d8 2e 3b
       0.0597126 -0.19390678 0.11497933 0.002667943

context_transformer_0/attention/value/add;context_transformer_0/attention/value/einsum/Einsum;context_transformer_0/attention/value/add/ReadVariableOp/resource f4 [32]
000000 44 6e c3 bc 2d 49 11 3c 3a 97 04 3d 8f f3 44 bd
       -0.02385629 0.008867544 0.032370783 -0.048083838
000010 fa 57 ec bc da 4e bb bc 94 80 11 bd 4b 6c 1c 3d
       -0.028850544 -0.022864748 -0.035523012 0.038189214
000020 e5 4a 86 3d e7 b2 d4 bd 8f 18 85 3d ef 1c 26 bd
       0.06557254 -0.103856854 0.06498825 -0.040554937
000030 f7 7c 62 3c c5 f0 72 bd 23 74 f4 bc f6 61 30 bd
       0.013823739 -0.059311647 -0.029840535 -0.043062173
000040 04 91 68 bc 81 29 92 3d 97 ae 9b 3d 7d 16 91 bb
       -0.014194731 0.071368225 0.0760166 -0.0044277296
000050 df 39 88 3d d4 3a 82 3d 65 f4 0a bc 39 92 89 bb
       0.06651663 0.06358877 -0.00848112 -0.0041983393
000060 f5 b0 a5 bd 09 da d7 3c b6 f2 8d 3d a1 eb de bc
       -0.080903925 0.026349084 0.06931059 -0.027211966
000070 c2 71 0f 3d f0 ca 4f bd 3d 5d 03 be ce 81 71 bd
       0.035020597 -0.050730646 -0.12828536 -0.058961682

context_transformer_0/bottleneck_input/norm/mul f4 [32, 32]
000000 7e e1 2f 3e f1 e4 bd 3d 94 82 de 3d 3f 67 fb bc
       0.17175862 0.09272183 0.108647496 -0.03068888
000010 9e 52 2f be 29 a1 07 3e 7f 2a 9c 3e 7f 45 3d 3e
       -0.1712136 0.13245071 0.30501172 0.18483542
000020 28 8c 9c bd 70 7e 7a be 0f 4b f7 bd 6b 08 c7 3d
       -0.0764392 -0.24462295 -0.12074863 0.097184025
000030 9c 38 2c be 1c 5b 6c 3d f4 f6 1e be 51 e7 d9 bd
       -0.1681847 0.057704076 -0.15523893 -0.10639823
000040 5d c7 e3 bc 82 04 80 3d 51 78 b6 bc 7b 76 ac be
       -0.027805025 0.0625086 -0.022274168 -0.33684143
000050 e6 0e 3a be 42 a4 66 bc ce c4 4c bd 1c fc 0c 3b
       -0.18169746 -0.014077248 -0.049992375 0.0021512574
000060 42 c9 1d 3e 42 a8 4b 3d 41 43 17 3e ee 60 30 3d
       0.15408805 0.04972101 0.14771749 0.04306119
000070 83 37 03 be 5d 47 26 3e 04 17 83 be fe 98 e2 3d
       -0.12814145 0.1623816 -0.25603497 0.11064337
000080 8a 23 66 3d 63 b9 42 3e 77 c1 47 3e 37 11 ca bd
       0.056186236 0.19016032 0.19507395 -0.09866565
000090 fc 71 e6 3d 64 91 09 bd 60 6b 4e be eb ba a3 bd
       0.112522095 -0.03358592 -0.20158148 -0.07994636
0000a0 8a db 2e be 00 16 a8 3d 36 4c 45 3d 33 b6 4f be
       -0.17075935 0.08207321 0.048168384 -0.20284347
0000b0 4d d3 8c 3e 1a 9a 8b 3e af da 01 be 7a ba cf bd
       0.2750496 0.27266008 -0.12681077 -0.101429895
0000c0 71 0e c1 3e d2 3f 28 3d d9 78 51 3d 06 cd f0 bd
       0.3770633 0.04107649 0.05114064 -0.11757855
0000d0 d3 54 92 bd 41 a5 0d be 14 43 7d bd 8c bd 85 be
       -0.07145085 -0.1383257 -0.06183155 -0.26121175
0000e0 6e 1d 21 be 31 85 e5 3c 65 e6 11 3e b6 bb 4c 3e
       -0.15733883 0.028017612 0.14248045 0.19993481
0000f0 ee 12 49 be bc f2 52 bd 71 df b2 bd 2f b8 40 bd
       -0.19636127 -0.05150102 -0.08734024 -0.04705065
000100 b6 98 9c bd fe 9d 11 3e bd 22 6f 3e 6d 7c 1f 3d
       -0.07646315 0.14220425 0.23353095 0.03893702
000110 72 1b ab be e8 13 9d bd 3d e4 83 3d 74 02 07 be
       -0.33419377 -0.076698124 0.06440017 -0.1318453
000120 e8 bf 3a bd 7c bd 16 3e d8 de d8 ba 2c 75 2d be
       -0.045593172 0.1472072 -0.0016545905 -0.16939229
000130 c2 b8 cd 3d 76 dd c3 bb 7b 0d b2 bd 15 a1 0a 3c
       0.100450054 -0.005977328 -0.086939774 0.0084612565
000140 dd a9 bc 3c 30 58 ad bd d9 66 ab 3d 01 c4 08 be
       0.023030216 -0.08464086 0.08369226 -0.1335602
000150 73 22 cb be 00 e8 09 3e 4f f7 8a 3e b8 5e a6 bd
       -0.3967472 0.13467407 0.27141806 -0.08123535
000160 41 3f 7e 3e ea 5b 25 3e 5b ef 5a be b9 ca 8b 3e
       0.24828817 0.16148344 -0.2138037 0.27303103
000170 7e f6 40 be 49 9a 5d 3d 38 03 5e be 7a c8 30 3d
       -0.1884403 0.054102216 -0.21680915 0.04315994
000180 50 4f 41 3e 0c fb ee 3c 0c 68 ab bc 11 34 64 3d
       0.18877912 0.029172443 -0.020923637 0.055713717
000190 18 30 9d bd 85 d9 5d 3d b5 5a 19 be 6f f2 1b 3e
       -0.07675189 0.05416252 -0.14976008 0.152292
0001a0 31 0c b2 bd c5 e0 b0 be 0e a3 66 3d 3f 91 43 be
       -0.086937316 -0.34546486 0.056307845 -0.19098376
0001b0 76 79 ee bc 16 37 05 be 8d 2a 12 3e 56 df 4e 3e
       -0.029110651 -0.13009295 0.14274044 0.20202383
0001c0 70 3b 1b be 2e fd 47 3e 18 1f 15 3e ff 83 ca bb
       -0.15159392 0.19530174 0.14562643 -0.006180286
0001d0 97 9a 28 bd 0a e2 19 be 81 6d bf 3e e5 1e e7 bd
       -0.041163053 -0.15027633 0.37388232 -0.112851895
0001e0 b0 0a 52 3c c7 14 93 3d d8 e2 f3 3d 0d a8 6f bc
       0.012819931 0.07181697 0.119085014 -0.014627469
0001f0 b3 51 2e 3e e5 12 21 be 17 03 9b 3d 3a a8 74 3e
       0.17023353 -0.15729864 0.07568949 0.23892298
000200 c3 9f 03 3e 65 ed cd 3c aa 0c 31 3d 51 c0 d3 bc
       0.12853913 0.025137613 0.043224968 -0.02584854
000210 01 b5 ff 3c 8f 3f 84 bc e1 ba 04 3d 6a cc 1c 3e
       0.03121424 -0.016143588 0.032404784 0.15312353
000220 80 e4 33 be e8 7e 56 be d3 f5 ed 3e 93 f8 ca 3e
       -0.17567635 -0.20946848 0.46476611 0.39642772
000230 63 a8 21 3d 3c 76 25 3e 7c 10 86 3e 3a 1b a8 3e
       0.039467227 0.16158384 0.26184452 0.32833272
000240 9e d6 20 be 38 c0 e3 be 0c f7 a5 be f8 b3 96 bd
       -0.1570687 -0.4448259 -0.32415044 -0.07358545
000250 c7 cf 08 bd e8 d3 20 3e 4d ef 19 3e fc 99 cd 3d
       -0.033401277 0.15705836 0.15032692 0.10039136
000260 19 f0 0a bf 65 41 cc 3d 3c f9 90 3e 08 ba 41 be
       -0.5427261 0.099734105 0.2831515 -0.18918622
000270 e8 ba b1 bd 13 fa aa be 35 24 4d 3e 31 9a 41 3e
       -0.08678228 -0.33393916 0.20033343 0.18906476
000280 c1 6a fa 3e c8 ad d0 3e 24 2c 79 be 1e d7 2c be
       0.48909572 0.40757585 -0.24333245 -0.16878936
000290 00 4a 0a 3d b0 d2 e6 bd e2 64 0d be 69 26 f4 3e
       0.03376198 -0.11270654 -0.13808015 0.47685555
0002a0 dd a2 a4 3d 45 b7 93 be 02 42 73 3e 68 9a 98 3e
       0.08038876 -0.2885076 0.23755649 0.29805303
0002b0 b6 12 ba be 5c c4 9a be 77 60 24 3f 73 ce 41 bd
       -0.363424 -0.30227935 0.64209694 -0.047316026
0002c0 d8 89 57 bd e8 7f 4e be 9a ee 81 3d cb 43 9a 3e
       -0.052621692 -0.2016598 0.06344338 0.30129847
0002d0 aa f6 3b 3f 1b f5 93 3d ed 2e b6 3c e2 e4 6e 3e
       0.73423254 0.072244845 0.022239173 0.233295
0002e0 8c 49 d1 be 31 23 53 3d a0 b9 7e be e5 6d db bd
       -0.40876424 0.051547233 -0.24875498 -0.1071432
0002f0 41 a1 bf 3b 33 be de be a2 28 03 3e 4a 45 93 3e
       0.0058480804 -0.43504485 0.12808469 0.287638
000300 0c b7 38 3e d0 34 47 3e fe c2 7d 3e 45 e5 50 3d
       0.18038577 0.1945374 0.24781415 0.0509999
000310 0e 5b a1 3d 82 51 fa 3d da a0 46 be f9 92 13 bd
       0.078786954 0.12222578 -0.19397298 -0.036028836
000320 c0 59 af 3d 38 b6 25 be ff 02 52 bd a7 17 b1 3d
       0.0856204 -0.16182792 -0.05127239 0.086470895
000330 ac 7e 91 bd 1f 82 9e bd 53 dd b1 3e 25 8f 45 3e
       -0.07104239 -0.077396624 0.3473917 0.19292887
000340 81 f4 f5 bc ee a7 85 3e 84 e8 08 3d 23 98 de bd
       -0.030023815 0.26104683 0.03342487 -0.108688615
000350 87 b2 18 3e 6b bf 1e 3d a0 0e 2c bf e7 69 a6 be
       0.14911853 0.03875677 -0.67209816 -0.32502672
000360 5f 1c 38 3e 79 c2 0f bd 67 4c 3b be f2 03 8a 3d
       0.17979573 -0.035097573 -0.18290864 0.06739034
000370 9a 4e 5f 3e 70 05 a9 bd 07 fb eb 3b 07 9c 25 3e
       0.21807328 -0.0825299 0.0072015557 0.16172801
000380 d4 17 19 3f 8e 8d f0 3e 35 63 ee 3d e6 13 55 be
       0.59801984 0.46982998 0.11640016 -0.20808372
000390 4b 47 1c 3e 0b 96 16 3e 62 05 d4 bd f2 f9 d6 3e
       0.15261571 0.14705674 -0.10352589 0.41987568
0003a0 2c ca ad bd 85 1b b5 3b 84 ee 24 be 3a e5 8b 3e
       -0.08485827 0.005526962 -0.16106611 0.27323323
0003b0 f6 41 4c 3c 37 8f 6b bd c5 5f 09 3d a1 fa d9 3e
       0.012466898 -0.057509627 0.0335386 0.42574027
0003c0 f9 0b 88 3c a3 61 8c 3e f7 bf bd bd af b3 0b bf
       0.016607272 0.2741824 -0.0926513 -0.5457105
0003d0 bc c0 85 3e 0d 87 c3 3e d2 44 f6 be 08 75 a7 3d
       0.26123607 0.38188973 -0.4809938 0.08176619
0003e0 ca 2b 63 be 1c 58 a4 3e 78 8e b8 bd 35 c1 7d be
       -0.22184673 0.32098472 -0.09011549 -0.24780734
0003f0 33 11 30 3e b3 e9 91 3d f7 df b8 3d 4a f6 c3 be
       0.17194061 0.07124653 0.09027093 -0.3827384

context_transformer_0/kq_shared_bottleneck/norm/mul;context_transformer_0/kq_shared_bottleneck/norm/add;context_transformer_0/attention/key/einsum/Einsum;context_transformer_0/attention/key/add;context_transformer_0/attention/value/einsum/Einsum;context_transformer_0/attention/key/add/ReadVariableOp/resource f4 [32]
000000 5b 2f 0c be 2f 5a 13 3e a3 f5 fe 3d 68 bc eb 3d
       -0.1368994 0.14389871 0.12449195 0.11510545
000010 49 f3 33 be 32 f6 01 3e 76 a9 16 3e 3b bc ed bd
       -0.17573275 0.12691572 0.14713082 -0.11608168
000020 bc 97 ab bd ab b8 d5 bd 38 4e a7 3d 49 e5 05 bd
       -0.083785504 -0.10435613 0.08169216 -0.032689366
000030 3f cb 84 3d 84 e2 fe 3d 4a 3b 3c 3d 5e b5 41 bd
       0.064840786 0.12445548 0.04595498 -0.047292106
000040 a0 27 4a 3c 2c 74 3c be 66 92 85 3d 2e 13 f1 3d
       0.012338549 -0.18403691 0.06522064 0.11771236
000050 08 67 02 3d d4 d9 bf 3d 85 cd 2e 3e bd 60 c5 3c
       0.03183654 0.09367719 0.17070587 0.02409398
000060 66 a5 48 bd 82 7b 1a 3e 24 ab 00 3a 47 dd bb 3c
       -0.04898586 0.15086177 0.00049083144 0.022932662
000070 e5 75 13 3d de fc 0a be e3 c1 e7 bc ac bd b1 bc
       0.036001105 -0.13573024 -0.028290695 -0.021696888

context_transformer_0/kq_shared_bottleneck/norm/mul;context_transformer_0/kq_shared_bottleneck/norm/add;context_transformer_0/attention/key/einsum/Einsum;context_transformer_0/attention/key/add;context_transformer_0/attention/value/einsum/Einsum;context_transformer_0/attention/key/add/ReadVariableOp/resource1 f4 [32, 32]
000000 d3 11 94 be 68 e8 96 bd f9 90 22 3e d5 34 d4 3d
       -0.2891985 -0.07368547 0.15875615 0.103616394
000010 cc ff aa 3d f1 53 1a 3e 7f f5 32 3d 18 f5 16 be
       0.08349571 0.15071084 0.043691155 -0.14741933
000020 45 62 ca 3d 7a d8 86 bd eb 88 9e 3d e6 27 19 be
       0.09882025 -0.065842584 0.07740959 -0.14956626
000030 e3 e4 a7 bc c4 95 96 3e c4 b3 1b be 9d e8 fd bd
       -0.020494884 0.29411137 -0.15205294 -0.12397883
000040 db eb d7 bd 15 f9 5d be 57 ff a2 3d 65 18 4e 3e
       -0.10543033 -0.21677049 0.079588585 0.20126493
000050 c4 39 21 3b c6 44 2a be 43 ec b3 bc 00 e2 a4 3c
       0.0024601081 -0.16627797 -0.021963244 0.020127296
000060 9f 94 1a 3e 3d 2c 3d be 2d 88 62 3e ee e5 72 be
       0.15095757 -0.18473907 0.2212226 -0.23720524
000070 93 e0 89 be d6 6c 39 be 45 51 81 be 49 07 da bd
       -0.2692915 -0.18107924 -0.25257316 -0.10645921
000080 11 70 a2 3e 1b e7 33 3d 67 03 52 3c 59 79 a1 bd
       0.31726125 0.04392157 0.012818194 -0.07884473
000090 42 9b ab bd f1 ae 79 bc 7e 55 db bd 41 d9 45 3d
       -0.083792225 -0.015239463 -0.10709666 0.048302893
0000a0 d7 db 03 bd a9 cb 9c bc b5 20 57 be 24 55 0a 3e
       -0.032192077 -0.019140081 -0.2100857 0.13509041
0000b0 bc 95 68 3b 56 76 87 be 42 61 15 3e 56 d0 2b 3e
       0.003548964 -0.2645747 0.14587882 0.16778693
0000c0 48 88 23 bd 4d 02 8b 3e 72 16 74 bd 0b d8 5f be
       -0.03992489 0.27150193 -0.059591718 -0.21859758
0000d0 1f dc 3b bd d2 8c 44 3e 54 e9 4e 3e b7 e9 e7 3d
       -0.04586422 0.19194344 0.20206195 0.113238744
0000e0 ef 86 9c bd 75 87 13 3e de 3b fe 3c 00 c1 c4 3d
       -0.07642924 0.14407142 0.031034406 0.09607124
0000f0 58 73 3e 3e bd f2 dc 3d 05 ec b4 3e 49 75 35 3e
       0.18598688 0.10788486 0.3533632 0.17720522
000100 c0 f0 9d 3e 76 9b 07 3d 35 04 89 bd a9 36 0a bd
       0.3084774 0.033107243 -0.066902556 -0.033743534
000110 6e bd 90 bd 8f ba 0c be b3 16 c6 bd b5 6c 97 3d
       -0.07067381 -0.13743041 -0.09672298 0.07393781
000120 1c 1a 17 bd 2f ce a8 3c 2a 4a 1d be 85 ee 2f 3e
       -0.036890134 0.020606128 -0.15360323 0.17180832
000130 e2 61 20 3d 38 3b a0 be 40 d7 02 3e 2a 2e 03 3e
       0.03915585 -0.3129518 0.12777424 0.12810579
000140 1b 1e 86 3c e1 96 64 3e 37 a8 a6 bd 8c e2 59 be
       0.016371777 0.2232318 -0.08137553 -0.21277827
000150 1f 27 5b 3d 5d 54 3d 3e d3 9b 49 3e 83 5b 3f 3d
       0.053504106 0.18489213 0.19688348 0.04671813
000160 3e 12 1d be 0a 24 54 3e ce 25 c2 bd ee 7c 35 3e
       -0.1533899 0.20716873 -0.09479867 0.17723438
000170 df ba 6f 3e 05 1a 03 3e 71 4d a3 3e 7d 9e 15 3e
       0.2341113 0.12802894 0.3189502 0.1461124
000180 c8 ae 8a 3e 37 71 09 bd a9 65 29 3e 15 70 b4 3c
       0.27086473 -0.033555236 0.16542687 0.022026101
000190 3c 56 d7 bd d7 d8 0b 3e dd 08 e1 bd b0 3e c1 bd
       -0.10514495 0.13656937 -0.10988019 -0.09435785
0001a0 3b 51 63 3d 7f 94 ea bd 79 c5 72 be 7b 64 e9 3d
       0.05549739 -0.11454105 -0.23708142 0.11396118
0001b0 72 c0 94 bd b5 2e 7c be 17 66 09 3e bf d5 2d 3e
       -0.072632685 -0.24627192 0.1341785 0.16976069
0001c0 2a 61 55 be c5 66 78 3e e4 d0 be bc f0 82 63 be
       -0.20837846 0.24257953 -0.023292966 -0.22217917
0001d0 cb e0 1f bd 3f d6 46 3e 47 67 d6 3e 2e 78 81 3e
       -0.03903274 0.19417666 0.4187567 0.25287002
0001e0 b8 dc a0 bb 62 98 cb 3c 28 bc a6 3e e0 d7 1b bd
       -0.004909124 0.024852935 0.32565427 -0.03804767
0001f0 c6 42 9b 3d f8 80 40 3d 5c 40 bb 3e 37 e1 30 3e
       0.075810954 0.046997994 0.3657254 0.17273413
000200 52 95 a1 be ea 91 83 bd 1f 10 0c 3e f6 4d 10 3e
       -0.31559235 -0.06424315 0.13678025 0.1409224
000210 29 38 bb 3d 78 a5 23 3e df 95 d8 3d 87 a6 06 be
       0.09141571 0.1598109 0.10575461 -0.13149463
000220 4d c8 20 3d 49 c5 b7 bc d1 ea 01 3e 6d 36 f3 bd
       0.03925352 -0.02243294 0.12687232 -0.11875615
000230 c9 f1 d5 bc 06 f7 a6 3e 68 a7 12 be f2 bc 2f be
       -0.026116269 0.3261034 -0.14321673 -0.1716192
000240 6f 2a a4 bd be f7 8b be 68 83 0f 3e a3 fd 76 3e
       -0.08015906 -0.2733745 0.14014971 0.24120192
000250 6b 31 e0 3c 32 21 47 be a3 b4 d7 bc 93 62 4f bd
       0.027367314 -0.19446257 -0.026331251 -0.050631117
000260 60 96 e8 3d f5 58 26 be ee 35 27 3e 77 8d 70 be
       0.11356807 -0.16244872 0.16329166 -0.23491465
000270 da 39 56 be 89 a8 23 be f9 f3 a6 be b4 84 29 be
       -0.20920506 -0.1598226 -0.3260801 -0.16554528
000280 42 f9 97 3e 40 45 0b 3d b2 ad c8 bd b6 e9 c8 bd
       0.29682356 0.03400159 -0.09798755 -0.09810202
000290 82 09 3d bd 0d b9 35 be fa cc 9d bd 27 89 bc 3d
       -0.046151645 -0.17746373 -0.07705112 0.09205847
0002a0 f2 d6 b2 bd 3f d8 7e 3d a2 e1 a7 bd 9e 25 14 3e
       -0.08732404 0.062217947 -0.08197333 0.14467475
0002b0 9b fa 1f 3d 88 99 9a be 7d 71 cd 3d b8 75 b1 3d
       0.039057355 -0.3019526 0.10031412 0.08665031
0002c0 9a 08 a6 3d 63 12 3e 3e 1f 4b 8a bd 5a b0 24 be
       0.08107109 0.18561701 -0.067526095 -0.16082898
0002d0 77 aa 06 3d a1 8e 2f 3e 95 ab 75 3d ee 9d c5 3c
       0.03287741 0.17144252 0.059978087 0.024123158
0002e0 b9 79 14 be 12 5d 3e 3e 96 7b 1c be 54 85 58 3e
       -0.14499559 0.18590191 -0.1528152 0.2114461
0002f0 19 f8 5d 3e 79 f7 21 3e f6 3f 91 3e 7d ff 02 3e
       0.21676673 0.1581706 0.2836911 0.12792774
000300 d6 d3 b0 3e 83 79 87 3d 44 4f d8 bd f6 d0 f4 bd
       0.34536618 0.066149734 -0.10561994 -0.11953919
000310 db 56 93 bd 31 9b 5d be b8 60 94 bd 89 91 a0 3d
       -0.07194301 -0.21641232 -0.0724501 0.07840259
000320 88 39 a9 bd 3a 2e f4 3b b9 38 b3 bd 1e f3 1a 3e
       -0.08262926 0.0074517997 -0.08751053 0.15131804
000330 03 48 ea 3c 4d a3 a2 be 15 b5 0d 3e 6e 18 ea 3d
       0.028598791 -0.31765214 0.13838609 0.11430441
000340 f3 37 c1 3d 4c c7 4c 3e a8 15 dd bd 7b 74 53 be
       0.094344996 0.199979 -0.10795146 -0.20649903
000350 a8 8e c8 3c 42 28 4f 3e 2c c6 55 3d 94 46 7f 3b
       0.024482086 0.20230201 0.052190945 0.003895198
000360 0b 5a 47 be 20 77 3a 3e c0 0e 2e be 97 2f 50 3e
       -0.19467942 0.18209505 -0.16997814 0.20330654
000370 e9 d4 63 3e 38 d2 e5 3d f0 e3 8f 3e 53 e7 dc 3d
       0.22249188 0.11221737 0.2810359 0.10786309
000380 5a db 9d be e6 1e d5 bc 3b 51 38 3d 0d 01 37 3d
       -0.30831414 -0.02601571 0.044999342 0.044678736
000390 93 b6 8f 3d 8a 3f d9 3d 77 cd b7 3d c4 ea 97 bd
       0.07017245 0.10607822 0.08974736 -0.07417825
0003a0 c6 70 49 3c 32 90 84 3b 32 fa 11 3e 1d e5 06 be
       0.012294954 0.0040455097 0.14255598 -0.13173337
0003b0 83 0b 11 bc 91 50 82 3e b0 20 cf bd 9f 1c fd bd
       -0.008852842 0.25452092 -0.101136565 -0.12358975
0003c0 c7 00 f9 bb 81 92 5a be de e3 22 3d 77 b1 3e 3e
       -0.0075989696 -0.2134495 0.039768092 0.18622385
0003d0 df 80 12 bc 27 60 5b be 46 d7 26 be 9a 99 77 bd
       -0.008941858 -0.21423398 -0.16293058 -0.06044922
0003e0 da 38 12 3e cc cd 25 be a9 5b 21 3d c4 33 0c be
       0.142795 -0.16191787 0.039394055 -0.13691622
0003f0 6d d1 49 be 3f 52 b3 bd c8 64 9c be 54 ce 05 be
       -0.19708796 -0.087559216 -0.3054564 -0.13066989

context_transformer_0/kq_shared_bottleneck/norm/mul;context_transformer_0/kq_shared_bottleneck/norm/add;context_transformer_0/attention/query/einsum/Einsum;context_transformer_0/attention/query/add;context_transformer_0/attention/value/einsum/Einsum;context_transformer_0/attention/query/add/ReadVariableOp/resource;context_transformer_0/attention/Mul;context_transformer_0/attention/Mul/y f4 [32]
000000 71 53 ff 3d 02 c5 2a be cf d3 12 be a7 e7 4e be
       0.12467087 -0.16676715 -0.14338611 -0.20205556
000010 66 a4 1e 3e 1a 36 ed bd c3 5c 07 be 44 8b 0e 3e
       0.154924 -0.11582585 -0.1321898 0.13920313
000020 44 24 d5 3d 1f 24 09 3e ed a0 08 be 7b 9a d5 3d
       0.10407308 0.13392685 -0.13342638 0.104298554
000030 da fc 04 be 33 dc 08 be d9 7f 8f bd 62 d4 a5 3d
       -0.1298708 -0.1336525 -0.07006807 0.080971494
000040 a1 24 17 be 55 d1 15 3e d3 10 80 bd a2 97 b3 bd
       -0.14760067 0.14630635 -0.06253209 -0.08769156
000050 7a bb 01 be bb 7d 94 bd a0 95 0a be 31 47 9a be
       -0.12669173 -0.07250544 -0.1353364 -0.3013244
000060 5b 2c b8 bd 06 87 a7 3d 69 56 42 3d a5 6c 72 3d
       -0.08992835 0.081800506 0.04744569 0.059185643
000070 8f 05 6f bd e2 3f 06 be 68 f6 53 bd 29 94 64 bd
       -0.05835491 -0.13110307 -0.051748663 -0.05580536

context_transformer_0/kq_shared_bottleneck/norm/mul;context_transformer_0/kq_shared_bottleneck/norm/add;context_transformer_0/attention/query/einsum/Einsum;context_transformer_0/attention/query/add;context_transformer_0/attention/value/einsum/Einsum;context_transformer_0/attention/query/add/ReadVariableOp/resource;context_transformer_0/attention/Mul;context_transformer_0/attention/Mul/y1 f4 [32, 32]
000000 2b ec b9 bc 67 93 ea bc b3 ab 46 3d b5 be 08 3d
       -0.022695621 -0.02863474 0.04850359 0.033384997
000010 bc 6a 69 3c 44 94 09 3d b8 9c 76 3c 8f fd 79 bd
       0.014246639 0.033588663 0.015052013 -0.061032828
000020 f9 65 8d bd 06 77 39 3b 6e 82 97 3c 06 c1 c7 bc
       -0.06904215 0.0028299703 0.01849481 -0.024384033
000030 7e 05 35 bd e5 60 11 bd a0 16 25 bd a2 c2 a1 bc
       -0.04419469 -0.035492796 -0.04030478 -0.019746128
000040 3a 03 18 bd 1e 67 1d 3d 7f 97 b3 bc 9a 31 a9 bc
       -0.037112452 0.03842842 -0.021922825 -0.020653535
000050 af f9 b9 3d b9 bf 92 bc d8 ca 93 bd 95 63 2c bd
       0.090808265 -0.017913686 -0.07216424 -0.042087156
000060 99 65 2e 3d c6 bc 63 3b 9d 81 9a 3d a3 d6 be 3b
       0.04257736 0.003474997 0.07544253 0.0058239265
000070 8d 5d 05 3d 3b 1d b6 3c 41 96 d9 3b f3 6b 6d 3c
       0.03255992 0.022230735 0.006640226 0.014491069
000080 60 ba 36 3c 3b 59 97 bc f9 02 b1 bb bb 44 a2 b9
       0.011152834 -0.018475166 -0.0054019657 -0.00030950256
000090 85 c4 4b 3c 3f 61 02 bd 09 6f c9 3c f9 27 07 3d
       0.012436991 -0.031831022 0.024589079 0.032997105
0000a0 9f 01 5f 3d af f2 28 3d ba de e8 3c ad f7 8b 3c
       0.054444905 0.041247066 0.028426517 0.017085874
0000b0 79 6d 67 3c e5 3d 23 3d 68 66 c8 3b ca 1f a4 bc
       0.014125221 0.03985395 0.0061157234 -0.02003469
0000c0 9a 25 ce bc 10 51 2a bd 54 2a 2f 3d 4d be 45 3d
       -0.025164414 -0.041581213 0.042764977 0.048277188
0000d0 24 e8 a1 bc a9 a6 9f bc a0 00 90 3d ed 9d bf bc
       -0.019764014 -0.01948865 0.07031369 -0.023390735
0000e0 a2 90 9b bc 79 4e 0c bc 81 6d ea bc 57 17 7f bb
       -0.018989865 -0.008563631 -0.028616669 -0.0038923824
0000f0 92 50 db bc 65 c5 72 bc 35 80 b7 bc 2d 2e 07 bd
       -0.026771817 -0.01481757 -0.022400001 -0.03300302
000100 85 da 8f 3c bf 34 0f 3a 6b a4 12 bd 19 c2 98 bb
       0.017560253 0.0005462877 -0.035801332 -0.00466181
000110 35 f7 0c 3c 3a ac 3c bd 25 7e a7 bb 2a ca 07 3d
       0.008603861 -0.046062686 -0.005111473 0.033151783
000120 4e 51 73 3d 6d bd 26 3b 96 c1 9d 3b 43 d2 e0 3c
       0.05940371 0.0025442496 0.004814337 0.02744401
000130 37 d6 3a 3d ac 95 1c 3d 63 e0 23 3c e0 da 13 3b
       0.045614447 0.038228676 0.010002228 0.002256088
000140 81 bc 96 3c 97 c6 5b bd 2a 38 2f 3d 7c d8 52 3d
       0.018400433 -0.053656187 0.04277817 0.051475987
000150 6b b3 1d bd 4b 97 b9 ba a7 58 a8 3d b2 b9 87 3c
       -0.038501184 -0.0014159469 0.08220034 0.016568039
000160 38 6d 8e bd ce 10 a5 bb ad f9 65 bd 06 f9 18 3b
       -0.069544256 -0.0050374037 -0.056146313 0.002334179
000170 eb 17 2b bd 81 7e b6 bc 70 6b c7 bc c6 fa 09 bd
       -0.041770857 -0.022277119 -0.024343222 -0.03368642
000180 06 b9 f7 b9 04 db 87 bd da b4 8b 3d 1a fa 91 3d
       -0.00047249364 -0.06633571 0.06821604 0.07127781
000190 a8 f3 6e 3d 39 f6 db bc 41 19 b0 3d c1 ca 05 bd
       0.058337837 -0.026850807 0.08598567 -0.032664064
0001a0 6b 63 c1 3c d4 a5 be 3d 2b f7 a1 3d 97 39 2a 3c
       0.023606976 0.09308973 0.07908472 0.010389707
0001b0 30 9f b6 bc 59 49 1e 3d 23 77 45 bd 76 a6 92 bd
       -0.022292703 0.03864417 -0.04820932 -0.07160656
0001c0 df 78 b9 bd 76 db 89 bd 2b 6b 74 3d 84 64 43 3d
       -0.090562575 -0.06731312 0.059672516 0.04770328
0001d0 b7 89 64 3d 2c 14 1a bd 8f fc 9a 3d d0 b5 b4 bd
       0.055795398 -0.037616894 0.07567703 -0.088237405
0001e0 4f 0c 11 bd b4 a5 95 3c ae e4 08 3d a9 0f b2 bb
       -0.03541213 0.01826749 0.03342121 -0.0054339957
0001f0 da dd cc bc 78 54 1c bc 65 f6 4d bd 39 ed 32 bd
       -0.02500813 -0.009541623 -0.05028381 -0.043683264
000200 ea d8 13 bc 9f 9a d2 bc 95 f6 29 3d c1 f1 c0 3c
       -0.009023884 -0.025708495 0.041494925 0.023552777
000210 54 a1 19 3c c5 a8 44 3d e5 fb 43 3b c2 13 80 bd
       0.0093768425 0.048012514 0.002990478 -0.062537685
000220 f3 6e 8e bd 78 de 92 bc d7 df 2a 3b 70 80 1e bc
       -0.06954756 -0.017928347 0.002607336 -0.009674177
000230 3c a6 b0 bc 70 93 56 bd f3 21 02 bd 35 e4 1a bc
       -0.021563642 -0.0523867 -0.031770658 -0.009453823
000240 07 6e 20 bc fb 2d 4d 3d a8 aa ce bc 85 29 07 bd
       -0.009791858 0.05009268 -0.02522786 -0.03299858
000250 2b 38 9d 3d 6e a5 24 bc be 98 9b bd e4 4c fa bc
       0.07676729 -0.010049207 -0.07597493 -0.030554242
000260 a6 ae 93 3c 18 a6 45 bc f7 3c 93 3d 17 6e ba ba
       0.018027615 -0.012063526 0.071893625 -0.0014223483
000270 8a ee 75 3d 9b 25 ba 3c b6 5b 00 3c 20 a1 69 3c
       0.06004194 0.02272301 0.007834366 0.014259607
000280 64 61 43 3c e4 e0 8c 3c b1 54 57 bd a6 10 c9 bc
       0.011925075 0.01719708 -0.052571002 -0.024544071
000290 cc 17 1d 3a da 1f 34 bd f2 20 c9 bc 91 db 1e 3d
       0.0005992621 -0.04397569 -0.024551842 0.038783614
0002a0 61 8b 64 3d c0 13 a6 bc 5a cf 35 3b d6 5f 54 3c
       0.055796985 -0.02027309 0.0027742 0.012962302
0002b0 23 2c f4 3c c2 fe 9b 3c 55 84 03 3d c1 81 06 3b
       0.029806202 0.019042376 0.032108624 0.0020524117
0002c0 c3 22 f5 3c 81 63 0c bd 08 67 a8 3c 1b f5 03 3d
       0.029923802 -0.03427458 0.020556942 0.032216173
0002d0 ca 14 8c bd cf 41 82 3b 9a f1 83 3d 6e 17 c9 3c
       -0.06839903 0.00397513 0.06442566 0.024547305
0002e0 d7 1c 53 bd ad 82 7e 3c 0b 75 7b bd c8 ef 3a 3c
       -0.051541176 0.015534085 -0.061390918 0.011409707
0002f0 be d2 21 bd c8 fa 97 bc fc 5f 73 bc 31 d0 b4 bc
       -0.03950762 -0.018552199 -0.014854427 -0.02207193
000300 f3 69 d4 3c 1f bc 7f 3c bf 03 47 bd 9e 38 cf bc
       0.025929427 0.015608816 -0.048587557 -0.025295552
000310 73 ed 0b bc 84 cb 36 bd 67 d3 6d bc 06 33 8b 3d
       -0.008540499 -0.04462768 -0.014515734 0.06796841
000320 c2 c0 8b 3d 9c 74 48 3a 42 3e 4f bb f7 55 d7 3c
       0.06823875 0.00076467707 -0.0031622802 0.026286108
000330 12 4c 37 3d ec 6a 20 3d 59 73 07 3d 9e 71 ec 3b
       0.04475028 0.03916447 0.03306899 0.0072156927
000340 bd 04 14 3d c2 20 2f bd 58 0b fc 3c 3d 08 d1 3c
       0.03613733 -0.04275585 0.030767128 0.025516624
000350 a2 c6 6c bd e9 a2 2c 3c 04 b3 99 3d be f1 ef 3c
       -0.05780662 0.010536888 0.07504848 0.029290076
000360 97 c5 72 bd 9a 0f bb 3b 39 f6 96 bd 86 93 40 3c
       -0.059270468 0.005708647 -0.07371182 0.011753922
000370 c7 71 fe bc 5c c7 83 bc 67 67 df bc 92 1a 95 bc
       -0.031060113 -0.016086273 -0.027270986 -0.018201146
000380 48 88 35 bc 34 be 9f 3b 10 4a 38 3c ce df 23 3b
       -0.011079855 0.004874969 0.011248127 0.0025005224
000390 6c 5c b3 bb f6 dd 47 3d ee b6 3f bb 7c 3a 3c bd
       -0.005473664 0.048795663 -0.0029253322 -0.045954213
0003a0 c4 cb 28 bd 10 e2 cd bb 06 f2 db bb 69 60 d0 bc
       -0.04120995 -0.0062830523 -0.006712201 -0.025436597
0003b0 71 c5 c0 bc af 3c 05 bd b9 78 65 bc 7e 57 63 3c
       -0.023531647 -0.032528576 -0.014005833 0.01387584
0003c0 41 3c 0b 3c 6c db 25 3d 50 6b 01 bd f1 54 34 bd
       0.008498252 0.04049246 -0.03159648 -0.04402632
0003d0 26 ed f4 3c 31 58 58 3b 35 0b 81 bd 46 23 26 bb
       0.029898237 0.003301155 -0.06300966 -0.0025350614
0003e0 4c 20 5e 3d 4f b1 4f bc 64 81 46 3d 9b db 97 ba
       0.05423002 -0.012676551 0.04846324 -0.0011585833
0003f0 91 ad 02 3d 15 42 b4 3c ea 76 7f 3c ae f3 b7 3c
       0.031903807 0.022004167 0.015592316 0.022455063

context_transformer_0/ffn_layer_0/intermediate_dense/einsum/Einsum;context_transformer_0/ffn_layer_0/intermediate_dense/Relu;context_transformer_0/ffn_layer_0/intermediate_dense/add f4 [32]
000000 9d 9b 29 be 65 b4 b4 be 83 d6 87 be d6 95 14 be
       -0.16563268 -0.3529388 -0.26530847 -0.14510283
000010 44 92 76 be b1 9e 7f be 82 1c a9 be 73 6f a0 be
       -0.24079233 -0.2496288 -0.33029562 -0.3133503
000020 ce b0 d1 be 09 db e3 bc 6e 31 66 be dd 36 01 bf
       -0.40955204 -0.027814405 -0.22479793 -0.5047434
000030 b4 88 e9 be 8e 7d 7e ba dd 04 9a be aa bc b7 be
       -0.4561211 -0.000970804 -0.30081835 -0.35886127
000040 44 ce 3d be ff d3 1f bf 1a 3c 58 be eb 14 a4 be
       -0.18535715 -0.62432855 -0.21116677 -0.3204721
000050 2e eb f2 be cd 26 a6 bd 04 50 58 bd 9d 61 c3 be
       -0.47445053 -0.081128694 -0.052810684 -0.3816041
000060 76 92 42 be 13 6c 50 be 0e 9c fe bc 4f 0c e6 be
       -0.19001183 -0.20353727 -0.031080272 -0.44931266
000070 ff b0 fe be 54 47 b7 be df 71 8a be 3c 41 c6 be
       -0.49744412 -0.35796607 -0.27040002 -0.38721645

context_transformer_0/attention/norm/mul;context_transformer_0/attention/norm/add;context_transformer_0/ffn_layer_0/intermediate_dense/einsum/Einsum;context_transformer_0/ffn_layer_0/intermediate_dense/Relu;context_transformer_0/ffn_layer_0/intermediate_dense/add f4 [32, 32]
000000 ba 55 a3 3d 7c 1e 40 be b8 14 19 3e 87 f2 61 3c
       0.079753354 -0.18761629 0.1494931 0.013790733
000010 36 90 fc bd 26 3a 96 bd 62 68 83 be 14 f3 94 3e
       -0.123321936 -0.0733531 -0.25665575 0.29091704
000020 f5 b2 2b be b8 b3 7c 3d d2 3b a3 3e 21 6e 47 be
       -0.16767485 0.06169483 0.31881577 -0.19475605
000030 3f 27 82 3d 91 9c 63 be 0b 50 38 3c d1 5f e4 3d
       0.06355142 -0.22227694 0.0112495525 0.11151088
000040 d5 7c c3 bd 40 71 fe bb 97 aa 84 be 03 2f 4f 3e
       -0.09545294 -0.0077649653 -0.259114 0.20232777
000050 c5 ae d2 3d 92 d4 02 bd 88 01 ec 3c 46 21 08 3e
       0.10287241 -0.031941004 0.028809324 0.13293943
000060 77 e6 81 3d ab 00 a2 be cc 82 db 3e 3b 18 8a bd
       0.06342786 -0.31641135 0.42873228 -0.06742903
000070 cd 1b 71 3d 82 27 87 bd 52 7f 12 3e 9d cc 8f be
       0.058864404 -0.065993324 0.14306381 -0.28085795
000080 79 2a 84 3d 46 90 bc be 07 83 57 3e 0d 02 01 3e
       0.064534135 -0.36828822 0.21046077 0.12598439
000090 49 7c 7d 3d d0 b6 9d bb 97 48 ef bd 66 36 8e 3e
       0.061886106 -0.0048130527 -0.11683767 0.27775878
0000a0 1d bc c7 bc 89 ed 19 be 70 38 27 3e af d6 1c be
       -0.024381692 -0.15032019 0.16330123 -0.1531627
0000b0 1b 5b 20 be e2 3a c8 bc c9 88 9d 3a b1 90 4d 3b
       -0.15659754 -0.02444214 0.0012018915 0.003136676
0000c0 2d 18 8a bc a9 79 3a 3e 61 3b f6 bd 42 67 64 be
       -0.016857231 0.18210472 -0.120230444 -0.22305015
0000d0 ad 9a bb 3c d6 a2 90 3d 15 d5 04 3d 53 76 75 bd
       0.022900904 0.070623085 0.032429773 -0.059927296
0000e0 0f 08 c3 bd 2b 58 e8 bd f2 a7 9a 3e 72 91 0b be
       -0.095230214 -0.11344942 0.30206257 -0.13629702
0000f0 54 21 f5 3d 97 44 bf 3d 3b 26 bf 3e 6a 1e a4 3e
       0.119692475 0.09339254 0.37333855 0.32054454
000100 80 25 9e 3e 3f 73 fc bd 08 62 76 3e 64 f5 ba 3d
       0.30887985 -0.12326669 0.24060833 0.09128836
000110 06 cd 22 be c1 11 b6 3d 5c 49 9f bd ef 50 1b bd
       -0.15898523 0.08890105 -0.07777664 -0.03791898
000120 7a 1c 1d 3d 35 0e 73 be 41 59 96 bd 04 ba 88 3d
       0.038357235 -0.23735888 -0.073412426 0.06676105
000130 91 ae 98 be 9b 2d f0 3c 57 dd 7e be 8e 32 dd bd
       -0.29820684 0.029318621 -0.24889122 -0.10800658
000140 3e f0 8c 3c d4 a9 e0 bd fe 98 40 3d a0 7b 5c be
       0.0172044 -0.10969892 0.047020905 -0.21531534
000150 ac 9a 2b 3e 66 34 c9 3c ea cd 5f 3e cf fe 44 be
       0.16758221 0.024561118 0.21855894 -0.19237827
000160 31 6e c9 3e 56 42 55 3e 39 4f 01 be 5b a1 0e 3e
       0.39341882 0.20826086 -0.12627877 0.1392874
000170 29 40 cd 3b 29 37 97 3d 2d 82 2f 3e a4 85 93 bc
       0.006263752 0.07383568 0.17139502 -0.01800806
000180 d9 47 ae be 3d a6 66 3d dd f7 d5 3e 67 c9 3c 3e
       -0.3403919 0.05631088 0.41790667 0.18436204
000190 2e d1 24 3c 0a f3 f0 bc 31 b5 91 3e 5a 09 3a bc
       0.010059638 -0.029412765 0.2845855 -0.011354769
0001a0 e9 22 76 3e 3f 07 08 be 86 7a d3 3d 2a 9b 11 be
       0.24036755 -0.13284014 0.10326104 -0.14219347
0001b0 65 c1 8f bb 42 f6 c2 be a3 33 c7 3e 77 66 6c be
       -0.004387068 -0.38078505 0.38906583 -0.23085962
0001c0 fe 2f b3 be 54 2e 0e be 00 df 38 be 20 f9 95 3d
       -0.34997553 -0.1388486 -0.18053818 0.073229074
0001d0 29 fe 8d 3e b9 09 78 3e 42 88 21 bd 63 b1 94 3c
       0.2773297 0.24222459 -0.039436586 0.01815099
0001e0 df 8c fb 3e fa 6b b3 be 5f 04 28 3e 27 60 09 be
       0.49130914 -0.35043317 0.16407917 -0.13415585
0001f0 c5 b3 45 be 57 c7 65 be e2 b3 e2 3c e6 e7 b6 bd
       -0.19306858 -0.22439323 0.027673665 -0.0893095
000200 a0 f1 95 3e 8c a1 77 be 35 39 c0 bd a4 8e 1c be
       0.29285908 -0.24182719 -0.093859114 -0.15288788
000210 4e ab f1 3d 7d 43 a0 bd a4 fc a1 be 2f 84 dd 3d
       0.11800252 -0.07825372 -0.31638062 0.10816228
000220 48 5b 17 3f 51 d5 75 3e 78 70 a9 bc ca 72 39 be
       0.5912366 0.24007155 -0.020683512 -0.18110195
000230 bc 9b ea 3c 61 9f 31 be b0 31 6a be 14 70 13 3e
       0.028638713 -0.17345954 -0.22870517 0.14398223
000240 f4 4e c3 3d ee ec 39 3d 0f 86 2c be 85 77 f2 bd
       0.095365435 0.04539197 -0.16848014 -0.11839203
000250 58 65 f5 bc 3a 43 d0 3d b2 84 18 3f 3e 42 b0 bd
       -0.029955551 0.101690724 0.59577477 -0.08606385
000260 0d eb 0a be 7e 53 1d 3e 15 19 07 be ea 8c eb 3d
       -0.13566227 0.15363881 -0.13193162 0.115014866
000270 3f 90 8f 3e 8f f3 44 3d 08 f8 4b 3e 0b ac d8 be
       0.2803974 0.048083838 0.19918835 -0.42318758
000280 40 62 cf bd 1b 08 2a be cc ee 69 3b de 88 27 be
       -0.101261616 -0.16604654 0.0035695313 -0.16360804
000290 67 6e 93 3d 32 d3 05 be 79 e2 c9 bd 2c 05 25 be
       0.07198792 -0.13068846 -0.09857649 -0.16115254
0002a0 a4 e1 0e 3f 8a a1 23 3e 45 03 ac 3e ed b0 98 be
       0.5581305 0.15979591 0.33596244 -0.29822484
0002b0 f6 d2 59 bd 58 b4 4e 3c 1d 74 ca bd 5c 72 79 3e
       -0.053179704 0.0126162395 -0.09885428 0.24360031
0002c0 e0 2d d8 be c1 b6 df bd 95 4a c0 bd d3 1d 04 be
       -0.422225 -0.109235294 -0.093892254 -0.12902002
0002d0 49 49 0c 3d fe a1 87 3e b5 14 d2 3e e0 40 0b 3e
       0.034249578 0.26490778 0.41031423 0.13598967
0002e0 e4 03 10 3c 18 fc 32 ba 54 52 81 3e bc 44 5c 3c
       0.00878999 -0.0006827726 0.25258124 0.013444122
0002f0 df 8a 16 3e 3b 6e 01 3d 3b 66 63 3d c7 04 7c 3e
       0.14701413 0.031599265 0.055517416 0.24611197
000300 53 66 40 3d 83 ff 03 3e 55 a2 e9 bd 32 ac 8e bc
       0.046972584 0.12890439 -0.114079155 -0.017416093
000310 40 f5 9c bd ad f6 10 be d0 dd ac be 06 09 5c be
       -0.07663965 -0.141566 -0.3376298 -0.21487817
000320 b7 9e 47 be 46 f0 09 3e a9 57 56 bd 54 8a ae bb
       -0.19494139 0.13470563 -0.052329693 -0.0053265486
000330 ff 80 3d be c7 1c 81 bc ca 23 f0 bc 19 bf b4 bd
       -0.1850624 -0.015760792 -0.02931394 -0.088255115
000340 23 59 79 be 67 55 94 be 91 1c 6e 3e 72 b8 33 be
       -0.24350409 -0.28971407 0.23253085 -0.17550829
000350 5e 06 14 3d 50 28 cd 3e cc 13 8b be b4 24 04 bd
       0.036138885 0.40069818 -0.2716354 -0.032261565
000360 69 d3 28 be c4 9d 91 3e 6c 01 42 3d 1d ef 50 be
       -0.16486897 0.28440678 0.047364637 -0.20403714
000370 88 a6 04 3e 8f dd 04 bf a1 b4 8f 3e c6 a0 c4 3e
       0.12954152 -0.5190057 0.28067496 0.3840391
000380 7a e0 64 3e ec 74 fb 3b 21 86 e2 be 13 db 0f bd
       0.22351256 0.0076738503 -0.44242957 -0.035121035
000390 c8 f9 45 3e 8e 35 12 be b5 f8 6c bd 12 3d 73 3d
       0.19333565 -0.14278242 -0.057854373 0.059384413
0003a0 e0 18 c8 bd b6 4c ee 3d fa 9b 31 3c 61 89 58 bd
       -0.097703695 0.11635725 0.01084041 -0.05286539
0003b0 cf 5d f0 bd 9f cf fd 3e 98 da 19 be 77 7e 3a ba
       -0.117366426 0.49572465 -0.15024793 -0.00071141816
0003c0 71 db d4 bd 1a 78 b3 bc 59 a8 02 bd 41 38 4f bd
       -0.103934176 -0.021907855 -0.03189883 -0.050590757
0003d0 cf d1 8a be 10 ea 64 3e 93 3d 76 bc e4 34 0f 3e
       -0.27113196 0.22354913 -0.015029329 0.1398502
0003e0 0d de 62 be f3 07 99 3d 39 c0 6b bd 1a 03 05 3e
       -0.22155018 0.07472219 -0.057556365 0.12989464
0003f0 33 60 65 3e c4 f4 15 bd 4b d4 80 3e 48 aa 5a bd
       0.22399978 -0.03661038 0.25161967 -0.05338505

context_transformer_0/ffn_layer_1/intermediate_dense/einsum/Einsum;context_transformer_0/ffn_layer_1/intermediate_dense/Relu;context_transformer_0/ffn_layer_1/intermediate_dense/add f4 [32]
000000 06 eb 4c be 22 8d 35 3d 5c 02 91 bd fe 0b a3 be
       -0.2001153 0.044324048 -0.07080528 -0.31845087
000010 0b 08 47 be 8f 09 d1 bd 12 c5 c6 bd fd a0 fb bc
       -0.19436662 -0.10206901 -0.09705557 -0.030716414
000020 ff 8d 31 be 5d 25 f9 bd ac 5a 6a bd 54 f0 77 3d
       -0.17339323 -0.121653296 -0.057215378 0.06053193
000030 55 73 9c be e0 61 c6 bd a8 f0 74 be f8 81 f0 bd
       -0.3055674 -0.09686637 -0.23919928 -0.117435396
000040 ba f4 ab bc bd f5 ef bd b9 cf 2b be d8 67 25 3e
       -0.020990718 -0.11716793 -0.16778459 0.16152894
000050 f3 33 80 3e 98 98 bf bc 67 9b a6 be cc 65 03 be
       0.25039634 -0.023388192 -0.32540438 -0.12831801
000060 5d d6 00 be da f5 95 3d c4 56 5d be 80 03 1f 3d
       -0.12581773 0.07322283 -0.2161513 0.038821697
000070 88 c1 17 bd f1 92 9b be c2 56 97 3d ef b0 d2 be
       -0.0370498 -0.30385545 0.073895946 -0.41150615

context_transformer_0/ffn_layer_0/norm/mul;context_transformer_0/ffn_layer_0/norm/add;context_transformer_0/ffn_layer_1/intermediate_dense/einsum/Einsum;context_transformer_0/ffn_layer_1/intermediate_dense/Relu;context_transformer_0/ffn_layer_1/intermediate_dense/add f4 [32, 32]
000000 e8 f9 ae 3b 7e ad 12 be a2 30 bd be fd 1d cc 3e
       0.0053398497 -0.14323995 -0.36951166 0.3986663
000010 5f 5a 88 bd 54 24 7d 3d d3 a8 a0 3e e1 9f 2e be
       -0.06657862 0.061802223 0.31378803 -0.17053176
000020 8d 20 3c 3e cd ed dc be b9 01 2c 3d f3 9b 1c bc
       0.18371792 -0.43150178 0.04199383 -0.009558666
000030 f9 1b 4c 3e 7d 72 8a 3e 25 f9 54 be ca 23 f4 bd
       0.19932546 0.27040473 -0.20798166 -0.11920889
000040 e2 52 28 bc fb d4 5a 3e 21 80 af be 53 d3 50 be
       -0.010273667 0.21370308 -0.34277442 -0.20393114
000050 ac c0 49 3d df 45 90 3e 83 11 fa bc b7 de 80 be
       0.04925601 0.28178307 -0.030525928 -0.25169918
000060 8e 4b a6 3e 5b 55 dd be d3 4c 25 be 36 72 94 3c
       0.3247952 -0.43229184 -0.16142587 0.018120866
000070 b7 73 42 bd a9 1e c9 3e e8 56 c0 3d ec 3c f6 be
       -0.047473636 0.39281204 0.09391576 -0.48093355
000080 38 b1 8d be 87 17 13 be bc 80 f5 bd 37 15 4e 3c
       -0.2767427 -0.14364444 -0.11987445 0.0125783
000090 dc 0c af be dc f8 1c 3d 83 5d e4 3c 3d 1b f8 be
       -0.34189498 0.03832327 0.027876621 -0.4845828
0000a0 e8 40 40 3e 2e 90 82 3e 7c 2d 8a bd 9c 07 d7 3c
       0.1877476 0.25500625 -0.06746957 0.026248746
0000b0 22 b0 75 3b 3f 37 4c bd 00 10 19 bd 31 9d 5b 3d
       0.0037489017 -0.049857374 -0.037368774 0.053616706
0000c0 24 0b 29 3d 52 1e f0 bd 4a e1 c2 bc 94 1b d8 3d
       0.04127039 -0.11724533 -0.023789067 0.10552135
0000d0 00 4a b1 3e 94 56 ce 3e 65 f2 94 3d f6 8a e3 bc
       0.3462677 0.4030043 0.072727956 -0.027776223
0000e0 e4 e2 56 3e 8d a6 13 bd bb 48 40 be 16 62 7a be
       0.2098499 -0.036047507 -0.18777744 -0.2445148
0000f0 2b 26 4a 3e e7 73 0d 3e 99 5c 86 3d 46 be b1 bc
       0.19741122 0.13813744 0.0656063 -0.021697175
000100 b0 81 85 be df 30 14 be ad a0 51 bd ee a7 13 3d
       -0.26075506 -0.14471768 -0.051178623 0.036048822
000110 13 2b a7 be 19 89 4d 3d 92 2c 25 3e 5d 8f ac 3e
       -0.3265005 0.050179575 0.16130283 0.33703128
000120 42 a1 90 bd c7 d0 a3 3e 60 01 8e 3e 6d 0f 6c be
       -0.070620075 0.31995222 0.27735424 -0.2305276
000130 7e ea 27 3e d1 cc 81 3d 35 aa cd 3e f4 91 4f 3e
       0.16398045 0.06337894 0.4016892 0.2027052
000140 80 b5 93 3d e6 93 94 be 88 69 26 be bd d1 df 3e
       0.07212353 -0.29019088 -0.16251194 0.43714705
000150 99 28 ef bd a5 79 b5 bc 32 76 43 3e 16 cc a5 3d
       -0.11677665 -0.022152731 0.19088057 0.08095567
000160 d1 9b 83 bd ce b8 02 3e 25 82 54 3c 96 b4 17 3e
       -0.06426204 0.1276581 0.012970482 0.14814982
000170 a2 1f 87 be a4 53 64 3d bc e7 ae 3c f9 58 82 3d
       -0.2639132 0.05574383 0.021350734 0.063646264
000180 6a 2c 9a 3d de 2b 68 3b 30 0d 59 3e 40 5f ad 3d
       0.075280026 0.0035426538 0.21196437 0.08465433
000190 9a 86 2b 3e 7d ae 35 3e e3 06 1e 3e 06 bd 46 3e
       0.16750565 0.17742343 0.15432315 0.19408044
0001a0 a8 76 90 bd 3b 6a 86 be b3 74 10 be 63 9f e2 bc
       -0.07053882 -0.26252922 -0.14107017 -0.027663892
0001b0 3d c5 1c 3e 6a 30 0e 3e 8b 25 14 3e 84 78 52 3e
       0.15309615 0.13885656 0.14467447 0.20553786
0001c0 22 97 e1 bb 12 63 97 be be e6 d5 bd ea dd 9c 3d
       -0.0068844715 -0.29567772 -0.10444401 0.07659514
0001d0 51 c3 80 be 2f ed d8 bd dd b1 39 3e 94 25 2c bd
       -0.25149015 -0.10592114 0.18134256 -0.042028025
0001e0 46 77 01 be dd 2c 30 bc b6 0f 0c be 04 0f 1a 3d
       -0.12643155 -0.010752884 -0.13677868 0.037611976
0001f0 53 33 10 be 83 6b d9 be 9c 64 5b bd 4d f0 fb 3c
       -0.14082079 -0.42464837 -0.053562745 0.030754233
000200 4b 90 2d be e5 fe e6 3d ae f0 5d be d2 38 0a 3c
       -0.16949575 0.11279086 -0.21673843 0.008436399
000210 03 7d 47 be 14 3d 03 3d c6 53 de 3c 37 2c 23 be
       -0.19481282 0.03204067 0.027139556 -0.15934835
000220 fc 73 76 be 2f 45 81 be 36 25 26 be 87 ef 02 3d
       -0.24067682 -0.25248095 -0.16225132 0.031966712
000230 c9 7a 88 3d e9 90 5c bc 70 b3 bd bd 36 05 1b be
       0.066640444 -0.013462284 -0.092627406 -0.15138707
000240 0d 4c 2e bf 89 22 62 3e 26 ec b9 3d 59 74 06 bd
       -0.68084794 0.22083487 0.09078245 -0.0328258
000250 51 f6 91 3e 3e a3 fb 3d 46 ba 9e 3e 28 3c a0 3d
       0.28508237 0.12286995 0.3100149 0.07823974
000260 6f d1 f3 3d 9e fc 03 3e 0e 24 9c bd d3 fc 9e 3d
       0.11905181 0.12889335 -0.076240644 0.07763066
000270 b8 21 42 be de bf 9a bd 66 20 29 3e fe fc c0 bd
       -0.18958175 -0.07556127 0.16516265 -0.094232544
000280 bb 04 9a bc ff ff f8 bc 30 17 c3 3b d0 79 03 3d
       -0.018801084 -0.030395506 0.005953692 0.03209859
000290 0f a6 4a 3c 2b d8 87 bc d4 14 30 3c 9a 4f 88 3c
       0.012368693 -0.01658257 0.010747153 0.01663952
0002a0 5e 29 92 bb 90 fb 7b 3c f1 24 67 3b 5e 86 ee bc
       -0.0044604978 0.015379801 0.0035269822 -0.029116806
0002b0 97 cf 87 bc c7 c8 b4 bb c1 23 59 3b f9 af a2 3b
       -0.016578479 -0.0055170986 0.0033132883 0.004964825
0002c0 8c 50 8a bb 94 39 92 bc d0 9b 8f bc 8b ae 2a 3b
       -0.0042210277 -0.017849721 -0.017530352 0.0026043977
0002d0 ea c6 b3 3b 85 c4 d8 3b c8 74 11 3b f3 e8 aa bc
       0.005486359 0.006615224 0.0022194851 -0.020863032
0002e0 08 36 d5 3b 42 59 04 bd 4a eb ed 3c 3c e5 5a 3c
       0.006506685 -0.032311685 0.029042859 0.013360318
0002f0 a6 0b db 3b a8 bf 91 bc f5 78 c3 3b 9e 30 73 bb
       0.006684738 -0.017791584 0.005965347 -0.0037107836
000300 5f cf 91 3c 5e 68 d7 bd 9e 00 96 bd f4 d2 11 bd
       0.017799078 -0.10517953 -0.073243365 -0.03560157
000310 ef b9 94 3d 01 7f 21 3e a4 00 3d bd c2 ee 28 bd
       0.072620265 0.15771104 -0.04614319 -0.041243322
000320 fc 3e f4 3d b3 fa 9b 3d b6 46 a2 3c d1 58 17 3d
       0.11926076 0.076161765 0.019809108 0.036949936
000330 46 a2 2a 3e 1f 21 92 bd 33 e9 ab bd 41 00 10 3e
       0.16663465 -0.071352236 -0.083940886 0.14062597
000340 94 91 e8 3c 81 e3 5c 3d a2 c3 26 3d 4e ff bd bd
       0.02838973 0.053927902 0.040713914 -0.09277211
000350 cd 57 3e bd ff 8d 1e 3e 08 b3 23 be 9b 01 d0 bd
       -0.046470452 0.15483855 -0.15986264 -0.10156556
000360 fb 93 9a bd 0e 29 4f bd e1 df 0b 3d 4f a6 e8 bd
       -0.07547756 -0.050576262 0.034149054 -0.11359846
000370 7d 0e 28 3e 08 01 ec bc 77 2b a6 3c 36 90 b3 3c
       0.16411777 -0.028809085 0.020284398 0.021919351
000380 48 5f 20 3e 6b 41 c4 be 5d 96 ac be b2 bc b9 bc
       0.15661347 -0.3833116 -0.33708468 -0.022672985
000390 46 82 b1 bc f2 77 8f bd 32 04 53 3c 25 f9 27 3e
       -0.021668565 -0.070053 0.012879418 0.16403635
0003a0 eb 02 be 3d fa cc ef bd 1a 2f 5d 3e 8c 95 16 be
       0.092779 -0.11709018 0.21599999 -0.14705485
0003b0 17 9d 06 bd 22 e0 a9 bd fc d9 7c bb b2 04 18 3e
       -0.032864656 -0.08294703 -0.0038582077 0.14845541
0003c0 f6 14 5d be 85 40 cf bd 6a 2d 65 be 8c ad 9c 3d
       -0.21590027 -0.10119728 -0.22380605 0.07650289
0003d0 c6 36 1c 3e a1 ae eb 3c 26 2a 2e be dc 26 83 3d
       0.1525527 0.028769793 -0.17008266 0.06403896
0003e0 85 e5 de bd 5a 0d 85 bd db 0c bb 3e 23 fb 3c be
       -0.10883621 -0.06496687 0.36533245 -0.18455176
0003f0 da e8 2c 3e 4c fd 4a bc 52 cb ca 3e db 49 8c 3e
       0.16885701 -0.012389492 0.39608246 0.27400097

context_transformer_0/ffn_layer_2/intermediate_dense/einsum/Einsum;context_transformer_0/ffn_layer_2/intermediate_dense/Relu;context_transformer_0/ffn_layer_2/intermediate_dense/add f4 [32]
000000 ec e7 95 bc e0 9f ac bd 63 82 0c be 4d db 23 be
       -0.018299066 -0.08428931 -0.13721614 -0.16001625
000010 aa cf 21 3d e4 b3 a0 3d 91 c4 ad bd df 94 eb bd
       0.039504685 0.078468114 -0.08484758 -0.11503004
000020 78 9a 81 be 04 01 a4 bd 08 7d a1 3c f7 d7 1a bd
       -0.25313163 -0.08008006 0.01971294 -0.037803616
000030 8a 8c 6d 3e e7 67 6a bd 33 92 a9 3c 65 8e 26 3e
       0.23198143 -0.057227995 0.020699596 0.16265257
000040 61 77 5f be 95 66 ac 3d 5f 7a 05 3d 66 41 10 3e
       -0.21822883 0.084180035 0.032587405 0.14087448
000050 72 30 13 be b6 fd 02 be ab f5 9a be 1b b3 2a be
       -0.14373949 -0.12792096 -0.30265555 -0.16669886
000060 cd 0d 0b bf 11 dd 7e be ad 7d 86 be 89 95 b9 bd
       -0.54317933 -0.24889018 -0.26267758 -0.09061725
000070 dd 47 70 39 b2 b1 ca be 7f 49 b1 3b ae 7b 3e be
       0.00022914955 -0.39588696 0.0054103727 -0.18601868
